6_Fastbuild_SaveLoad/net2_params.pkl (torch_old, 1006 bytes, 4 tensors)

0.weight f4 [10, 2]
00000000: ffc5 9dbe 3034 19bf ea29 ed3e 683a a13e
00000010: d0f9 453d ba49 80be 06d4 023f 1953 243c
00000020: a0c7 af3e 0f10 fc3e 5045 5f3c c9a1 263f
00000030: 2123 a53c d970 0e3f e22c 3dbf 5366 1bbf
00000040: a880 d13e a069 863e e308 f9be 2589 b23e
-0.30815122 -0.59845257 0.4632104 0.31489873 0.048333943 -0.2505625 0.5110477 0.010029578
0.3433199 0.49231002 0.013627365 0.65090615 0.020158352 0.5564094 -0.7389661 -0.6070301
0.4091847 0.2625246 -0.48639593 0.34870258

0.bias f4 [10]
00000000: 715c 363f ff15 34bf f632 78be 34da 2abf
00000010: 96de efbc 2754 0a3f 270c f7be c197 703c
00000020: 35f5 1fbf 6dd3 a23e
0.71234804 -0.70346063 -0.2423819 -0.667392 -0.029280942 0.54034656 -0.4825146 0.014684618
-0.6248353 0.3180193

2.weight f4 [2, 10]
00000000: 4ec3 4abe 0f66 1cbe 939e c7bd eaf3 05be
00000010: c7a4 7d3e ed40 c03e 93f1 a53e 112c c7be
00000020: c4e5 04be 4c37 00bd a342 c83e 86e5 2f3e
00000030: 5d15 993e 3a80 87be 07dd babe 8c24 aebe
00000040: 835e 9a3c 39e6 0f3e 5299 c7bd 2eaf c93b
-0.19801065 -0.15273307 -0.097470425 -0.13081327 0.24769889 0.37549534 0.3241087 -0.38900807
-0.12978274 -0.031302735 0.3911334 0.171774 0.2989911 -0.26465017 -0.36496755 -0.34012258
0.018843895 0.14052667 -0.097460404 0.0061549162

2.bias f4 [2]
00000000: 7be3 74bd fe5d 9abe
-0.059787255 -0.30149835
